…
    "moco_dim": 128,
    "moco_k": 1024,
    "moco_m": 0.99,
    "moco_t": 0.1,
    "model": "double",
    "projector_bn": true,
    "resume": "",
    "save_freq": 50,
    "schedule": [
        120,
        160
    ],
    "seed": 42,
    "start_epoch": 0,
    "symmetric": false,
    "train_split": "full",
    "use_balanced_memory_data": false,
    "use_translation_feats": false,
    "val_freq": 5,
    "wd": 0.0005,
    "work_dir": "./work_dir/test"
}
2023-10-16 12:24:08,039 - => creating models ...
2023-10-16 12:24:08,593 - MoCoTreeLSTM(
  (backbone_q): TreeLSTMDouble(
    (mlp1): Sequential(
      (0): Linear(in_features=5, out_features=128, bias=True)
      (1): BatchNorm1d(128, eps=1e-05, momentum=0.1, affine=True, track_running_stats=True)
      (2): ReLU()
      (3): Linear(in_features=128, out_features=256, bias=True)
      (4): BatchNorm1d(256, eps=1e-05, momentum=0.1, affine=True, track_running_stats=True)
      (5): ReLU()
      (6): Linear(in_features=256, out_features=128, bias=True)
    )
    (cell): TreeLSTMDoubleCell(
      (W1_iouf): Linear(in_features=128, out_features=512, bias=True)
      (U1_iouf): Linear(in_features=128, out_features=512, bias=True)
      (W2_iouf): Linear(in_features=128, out_features=512, bias=True)
      (U2_iouf): Linear(in_features=128, out_features=512, bias=True)
    )
  )
  (backbone_k): TreeLSTMDouble(
    (mlp1): Sequential(
      (0): Linear(in_features=5, out_features=128, bias=True)
      (1): BatchNorm1d(128, eps=1e-05, momentum=0.1, affine=True, track_running_stats=True)
      (2): ReLU()
      (3): Linear(in_features=128, out_features=256, bias=True)
      (4): BatchNorm1d(256, eps=1e-05, momentum=0.1, affine=True, track_running_stats=True)
      (5): ReLU()
      (6): Linear(in_features=256, out_features=128, bias=True)
    )
    (cell): TreeLSTMDoubleCell(
      (W1_iouf): Linear(in_features=128, out_features=512, bias=True)
      (U1_iouf): Linear(in_features=128, out_features=512, bias=True)
      (W2_iouf): Linear(in_features=128, out_features=512, bias=True)
      (U2_iouf): Linear(in_features=128, out_features=512, bias=True)
    )
  )
  (projector_q): Sequential(
    (0): Linear(in_features=128, out_features=128, bias=True)
    (1): BatchNorm1d(128, eps=1e-05, momentum=0.1, affine=False, track_running_stats=True)
    (2): ReLU()
    (3): Linear(in_features=128, out_features=128, bias=True)
  )
  (projector_k): Sequential(
    (0): Linear(in_features=128, out_features=128, bias=True)
    (1): BatchNorm1d(128, eps=1e-05, momentum=0.1, affine=False, track_running_stats=True)
    (2): ReLU()
    (3): Linear(in_features=128, out_features=128, bias=True)
  )
  (encoder_q): Sequential(
    (0): TreeLSTMDouble(
      (mlp1): Sequential(
        (0): Linear(in_features=5, out_features=128, bias=True)
        (1): BatchNorm1d(128, eps=1e-05, momentum=0.1, affine=True, track_running_stats=True)
        (2): ReLU()
        (3): Linear(in_features=128, out_features=256, bias=True)
        (4): BatchNorm1d(256, eps=1e-05, momentum=0.1, affine=True, track_running_stats=True)
        (5): ReLU()
        (6): Linear(in_features=256, out_features=128, bias=True)
      )
      (cell): TreeLSTMDoubleCell(
        (W1_iouf): Linear(in_features=128, out_features=512, bias=True)
        (U1_iouf): Linear(in_features=128, out_features=512, bias=True)
        (W2_iouf): Linear(in_features=128, out_features=512, bias=True)
        (U2_iouf): Linear(in_features=128, out_features=512, bias=True)
      )
    )
    (1): Sequential(
      (0): Linear(in_features=128, out_features=128, bias=True)
      (1): BatchNorm1d(128, eps=1e-05, momentum=0.1, affine=False, track_running_stats=True)
      (2): ReLU()
      (3): Linear(in_features=128, out_features=128, bias=True)
    )
  )
  (encoder_k): Sequential(
    (0): TreeLSTMDouble(
      (mlp1): Sequential(
        (0): Linear(in_features=5, out_features=128, bias=True)
        (1): BatchNorm1d(128, eps=1e-05, momentum=0.1, affine=True, track_running_stats=True)
        (2): ReLU()
        (3): Linear(in_features=128, out_features=256, bias=True)
        (4): BatchNorm1d(256, eps=1e-05, momentum=0.1, affine=True, track_running_stats=True)
        (5): ReLU()
        (6): Linear(in_features=256, out_features=128, bias=True)
      )
      (cell): TreeLSTMDoubleCell(
        (W1_iouf): Linear(in_features=128, out_features=512, bias=True)
        (U1_iouf): Linear(in_features=128, out_features=512, bias=True)
        (W2_iouf): Linear(in_features=128, out_features=512, bias=True)
        (U2_iouf): Linear(in_features=128, out_features=512, bias=True)
      )
    )
    (1): Sequential(
      (0): Linear(in_features=128, out_features=128, bias=True)
      (1): BatchNorm1d(128, eps=1e-05, momentum=0.1, affine=False, track_running_stats=True)
      (2): ReLU()
      (3): Linear(in_features=128, out_features=128, bias=True)
    )
  )
)
2023-10-16 12:24:08,594 - =====>using augmentations
2023-10-16 12:24:08,594 - Compose of [
	RandomScaleCoords(p=0.2, scale=[0.8, 1.2]),
	RandomRotate(p=0.5),
	RandomJitter(p=0.2, sigma=1, clip=5),
	RandomShift(p=0.2, shift=[5, 5, 5]),
	RandomFlip(p=1),
	RandomMaskFeats(p=0.2),
	RandomJitterLength(p=0.2, sigma=0.1, clip=1),]

2023-10-16 12:24:08,594 - None
…
